recommendation/log/2024-11-8_base_mf/best_model.pth (torch, 726579 bytes, 2 tensors)

user_embedding.weight f4 [4445, 32]
0	0xbef0ad09	-0.47007015
1	0x3e53eaf3	0.20695095
2	0x3eee6436	0.4656083
3	0xbef70bd5	-0.48251215
4	0xbee32cc6	-0.44370097
5	0xbeb7615b	-0.35816464
6	0x3e6e9d34	0.23302156
7	0xbed5d7e6	-0.4176628
8	0xbed9b0a9	-0.42517594
9	0xbebbc2b0	-0.36671972
10	0xbecf5ce4	-0.40500557
11	0x3ed78ecc	0.42101133
12	0x3edbe186	0.42945498
13	0xbede79a9	-0.43452194
14	0xbf020eae	-0.5080365
15	0xbef2c0c1	-0.47412685
16	0x3ea5efc7	0.32409498
17	0xbe92c47f	-0.2866554
18	0x3edd9b30	0.4328246
19	0xbe5916ac	-0.21200055
20	0xbf000019	-0.5000015
21	0x3ef4abb8	0.4778726
22	0xbf02ac16	-0.5104383
23	0xbef7527d	-0.4830512
24	0xbf042d9f	-0.5163211
25	0x3ef064b3	0.46951827
26	0xbef6f4e4	-0.48233712
27	0x3f011434	0.5042145
28	0xbeeb6753	-0.45977268
29	0x3eed7ade	0.46382803
30	0xbef341e8	-0.4751122
31	0x3ed57b52	0.41695648
32	0xbe9a7b6b	-0.30172285
33	0x3ea5ecff	0.32407376
34	0x3e8d4678	0.27592826
35	0xbe9c75ce	-0.30558628
36	0xbe978b81	-0.2959862
37	0xbea45123	-0.32093152
38	0x3e9e8cab	0.30966696
39	0xbe8816ad	-0.265798
40	0xbe681ce7	-0.22667275
41	0xbe93df58	-0.28881335
42	0xbe9ad02c	-0.30236948
43	0x3eb0301b	0.34411702
44	0x3ea1f6d7	0.31633636
45	0xbe996b31	-0.29964593
46	0xbea7c2a6	-0.32765692
47	0xbe8ec55f	-0.27884957
48	0x3ea75994	0.3268553
49	0xbeabbbaf	-0.3354163
50	0x3eaaf34e	0.33388752
51	0xbe986610	-0.29765368
52	0xbe87342f	-0.26407
53	0x3ea03c87	0.3129618
54	0xbe6e3202	-0.23261264
55	0xbea3968c	-0.31950796
56	0xbe821845	-0.2540914
57	0x3e90fd64	0.28318322
58	0xbe8079e8	-0.25093007
59	0x3e88c71f	0.26714417
60	0xbe988a51	-0.29793027
61	0x3ea0e49c	0.31424415
62	0xbe977d67	-0.29587862
63	0x3ea0c3cf	0.3139939
64	0xbd9a7dbe	-0.07543515
65	0xbd9493ed	-0.07254777
66	0x3d4d4753	0.05011685
67	0xbf2e0da5	-0.6798957
68	0xbe4aaacf	-0.19791721
69	0x3dea9c14	0.11455551
70	0xbe0ea4fb	-0.13930123
71	0x3d6be777	0.05759379
72	0xbe27ba4a	-0.16379657
73	0xbe02c056	-0.12768683
74	0x3e47dd0d	0.19517918
75	0xbe08c051	-0.13354613
76	0x3d675067	0.056473162
77	0xbe97a691	-0.29619268
78	0x3e2cb183	0.1686459
79	0xbea08bcd	-0.3135666
80	0x3eddf84a	0.43353492
81	0x3e88a930	0.2669158
82	0x3ed72f12	0.420281
83	0x3df7c970	0.12098968
84	0x3dc76099	0.097352214
85	0x3ea02c17	0.31283638
86	0xbf05b654	-0.52231336
87	0x3ddcb765	0.10777167
88	0xbd5e50b6	-0.05427619
89	0x3e7ee941	0.24893667
90	0xbe98dd73	-0.29856452
91	0x3dbda808	0.09260565
92	0xbd745329	-0.05964962
93	0xbe279526	-0.1636549
94	0x3d1cc04f	0.038269337
95	0xbca66858	-0.020313427
96	0x3e6fcb79	0.23417462
97	0x3f199ec9	0.6000791
98	0x3e03dfed	0.1287839
99	0x3e0c3ebf	0.1369581
100	0xbe5fc8d8	-0.2185396
101	0xbdc2f19c	-0.095187396
102	0x3f2965c6	0.6617092
103	0x3e58bfb1	0.21166874
104	0x3ee711f1	0.45130876
105	0x3c18859f	0.0093092015
106	0x3dd51922	0.10405184
107	0x3e11ca99	0.14237441
108	0xbb98be79	-0.004661378
109	0xbd578f6e	-0.05262702
110	0xbdac9eab	-0.08428701
111	0xbec88592	-0.39164406
112	0x3d811bd0	0.06304133
113	0xbe318e52	-0.17339447
114	0xbd05f390	-0.032702982
115	0xbf788a84	-0.9708636
116	0x3e33ed0e	0.17570898
117	0x3f23e579	0.6402202
118	0xbdda0be8	-0.10646802
119	0xbf5af729	-0.85533386
120	0xbe6bdd95	-0.23033746
121	0x3e585f55	0.21130116
122	0xbe896f1a	-0.26842576
123	0x3d9969ff	0.0749092
124	0x3dd51446	0.104042575
125	0x3e935755	0.28777567
126	0xbe9a91e6	-0.30189437
127	0xbda06437	-0.078316145
128	0xbce08949	-0.027409213
129	0x3e5d0565	0.21584089
130	0x3f0ab807	0.54187053
131	0x3f65785c	0.8963678
132	0x3e8a6a0f	0.2703404
133	0xbf11e1b2	-0.5698501
134	0xba98d250	-0.0011659358
135	0x3d96280a	0.073318556
136	0xbdfab229	-0.122410126
137	0x3c2a8730	0.010408208
138	0x3e012619	0.1261219
139	0x3e68fc6b	0.2275254
140	0xbe45129d	-0.19245382
141	0x3ddf24fe	0.108957276
142	0xbe7e088b	-0.24807946
143	0x3d7ddd84	0.061978832
144	0x3eefdc93	0.46847972
145	0xbe5d29fc	-0.21598047
146	0x3ec0bfca	0.37646323
147	0xbe2d8ea8	-0.1694895
148	0x3e146155	0.14490254
149	0x3f045387	0.5168995
150	0x3f468478	0.7754588
151	0x3db5bf85	0.0887442
152	0xbe9fa881	-0.31183246
153	0x3e153abc	0.14573187
154	0x3e6e23d0	0.23255849
155	0xbf085ba9	-0.5326486
156	0xbea295f7	-0.3175504
157	0xbda0fc1a	-0.078605846
158	0x3d57fbec	0.052730486
159	0xbe2f70e2	-0.17132905
160	0x3e94441c	0.28958213
161	0x3d8ac751	0.06776298
162	0xbe924122	-0.28565317
163	0xbe4a01c8	-0.19727242
164	0xbddbb201	-0.10727311
165	0x3e9f8fdc	0.31164443
166	0xbd8e28e9	-0.06941397
167	0x3ea390a1	0.3194628
168	0xbe9bc858	-0.30426288
169	0x3e84a19b	0.25904545
170	0x3e8aa132	0.27076107
171	0x3c008d4f	0.007846191
172	0x3da8dd55	0.08245341
173	0x3e9e818b	0.30958208
174	0x3e8fdd38	0.28098464
175	0x3e816b2b	0.25277075
176	0xbe6cccdf	-0.23125027
177	0x3e81a71d	0.2532281
178	0xbe7c5d58	-0.24644983
179	0x3cf7de8e	0.03025749
180	0x3e978ea6	0.2960102
181	0xbe98df2c	-0.29857767
182	0xbe9cebd9	-0.30648687
183	0x3e81d72d	0.2535948
184	0xbe16eff0	-0.14739966
185	0xbe8565ed	-0.26054326
186	0xbdc244fe	-0.094858155
187	0x3e603da0	0.21898508
188	0x3ea02a51	0.31282285
189	0xbe9969cd	-0.29963532
190	0x3e9c1e9a	0.30492097
191	0xbc454cea	-0.0120422635
192	0xbf1281be	-0.5722922
193	0xbe75ea54	-0.2401517
194	0x3e620901	0.22073747
195	0xbebddc56	-0.37082165
196	0xbdc8f8f7	-0.09813111
197	0xbe58b586	-0.21162996
198	0x3e1f3ce6	0.15550575
199	0x3dfcdbc0	0.123466015
200	0x3e0d70b2	0.13812521
201	0xbf146b71	-0.5797644
202	0x3e210947	0.15726195
203	0xbe2cf302	-0.16889575
204	0x3ef998f2	0.487495
205	0xbed77eef	-0.4208903
206	0xbe6dd4c3	-0.23225693
207	0xbed20e0d	-0.41026345
208	0x3f0c2325	0.54741126
209	0xbd34694a	-0.044045724
210	0x3f0fa01b	0.56103677
211	0x3e65fd9e	0.22460029
212	0xbeb7a49e	-0.3586778
213	0x3f290738	0.6602664
214	0xbed6105f	-0.41809365
215	0x3db24500	0.08704567
216	0xbf198400	-0.5996704
217	0x3e916dbe	0.2840404
218	0x3e469bd9	0.19395389
219	0x3e520317	0.20508991
220	0xbe237211	-0.15961482
221	0x3f2013bc	0.6253011
222	0xbf043831	-0.5164824
223	0xbe9c9891	-0.3058515
224	0x3d07c6b6	0.03314849
225	0xbe41743c	-0.18891996
226	0xbe4a4b3e	-0.19755265
227	0x3df016d8	0.11723107
228	0x3ce26f39	0.027640926
229	0xbe5bb904	-0.21457297
230	0x3db274d1	0.08713687
231	0x3e76fc22	0.24119619
232	0xbf1fa1d6	-0.6235632
233	0xbf086d6c	-0.53291965
234	0xbd8795e1	-0.06620384
235	0xbed59efa	-0.41722852
236	0x3f40bbb3	0.75286406
237	0xbe0ab528	-0.13545668
238	0xbd111181	-0.035417084
239	0x3d0c4e69	0.034254465
240	0xbc539dc3	-0.012916031
241	0x3db1b5b4	0.08677235
242	0x3dc77a6d	0.09740148
243	0xbd005ac2	-0.031336553
244	0xbf0270a4	-0.50953126
245	0x3e381d13	0.17979841
246	0xbede5acc	-0.43428648
247	0xbf199f50	-0.60008717
248	0xbf0ba9d5	-0.5455602
249	0xbdade0aa	-0.08490117
250	0x3e99bff0	0.3002925
251	0x3e88fe24	0.26756394
252	0xbed4adce	-0.41538852
253	0xbdb1cd67	-0.086817555
254	0xbee7e2d3	-0.4529024
255	0x3d204601	0.03912926

item_embedding.weight f4 [1222, 32]
0	0x3e48e939	0.19620217
1	0x3e2d30c5	0.16913135
2	0x3ea00297	0.31251976
3	0x3ebfba49	0.37446812
4	0x3e214fc3	0.15753083
5	0x3eb85138	0.35999465
6	0x3ea8e6a7	0.32988474
7	0xbe63bc88	-0.22239888
8	0x3ebcf22a	0.36903507
9	0xbead4d2e	-0.33847946
10	0xbd8c0b3c	-0.0683808
11	0xbe33c485	-0.17555435
12	0x3ebf1ba8	0.37325788
13	0xbeaa0518	-0.3320701
14	0xbe70468e	-0.23464414
15	0xbeb919ba	-0.3615244
16	0x3ea17fad	0.3154272
17	0xbea1a30c	-0.31569707
18	0x3eb533d7	0.35391113
19	0xbcda3aba	-0.026639331
20	0xbeb5e725	-0.35527912
21	0x3ebe43b3	0.37161025
22	0xbeab4d9c	-0.3345765
23	0xbebbcc05	-0.36679092
24	0xbea73df2	-0.32664448
25	0x3eb41b4d	0.3517708
26	0xbeab255f	-0.3342695
27	0x3dbb9fc5	0.09161333
28	0xbec0e8f7	-0.37677738
29	0x3c18ea4b	0.009333204
30	0xbe9f752f	-0.3114409
31	0x3eb4fead	0.35350552
32	0xbf2d65bc	-0.6773336
33	0x3f5633b5	0.8367265
34	0x3f799dfa	0.9750668
35	0xbf84d30c	-1.0376906
36	0xbf5f8d57	-0.8732504
37	0x3dd9fb01	0.10643578
38	0x3f8ba6e7	1.091031
39	0xbf8d2bf8	-1.1029043
40	0xbe129701	-0.14315416
41	0xbf9a43cc	-1.205194
42	0xbf7d0527	-0.98835987
43	0x3f415ffe	0.755371
44	0x3f51df53	0.8198139
45	0xbf93c417	-1.1544217
46	0xbf6cdb5e	-0.9252223
47	0xbf59cfbf	-0.8508262
48	0x3f18bb36	0.5966066
49	0xbf7bbdb3	-0.98336333
50	0x3efab306	0.4896471
51	0xbf7294e1	-0.9475842
52	0xbf2235f9	-0.63363606
53	0x3f5604ec	0.8360126
54	0xbd066fd6	-0.0328215
55	0xbf472c63	-0.77802104
56	0xbeeed54b	-0.46647105
57	0x3f1de0a8	0.61670923
58	0xbf5d4c53	-0.86444587
59	0x3f70659a	0.9390503
60	0xbf7781fc	-0.96682715
61	0x3f8d5a5b	1.1043199
62	0xbe71a707	-0.23598872
63	0x3f3e4ac6	0.74332845
64	0x3d3533df	0.04423892
65	0xbd32057b	-0.043462258
66	0xbd1d7716	-0.038443647
67	0x3e52273c	0.20522779
68	0x3d16af16	0.03678807
69	0xbefa9d07	-0.48947927
70	0x3d6c368a	0.0576692
71	0xbe11baec	-0.14231461
72	0xbe9bca83	-0.30427942
73	0xbdea1d96	-0.11431424
74	0x3d912f3f	0.070890896
75	0xbe3bea1b	-0.18351023
76	0x3dd92481	0.10602666
77	0x3e0fdd76	0.14049324
78	0x3d08e4e4	0.033421412
79	0xbd74d388	-0.059772044
80	0xbea1a9b6	-0.31574792
81	0x3ec91cda	0.39279824
82	0xbe87a914	-0.26496184
83	0x3ee321ef	0.44361827
84	0x3e7c4ddb	0.24639075
85	0x3e9e40e2	0.30908877
86	0xbee04204	-0.43800366
87	0x3e506e90	0.20354676
88	0x3f01f7ca	0.5076872
89	0xbf516771	-0.81798464
90	0x3f546324	0.82963777
91	0x3d8927f7	0.06697076
92	0x3df88f13	0.12136664
93	0xbe9619df	-0.29316613
94	0x3c8ca86a	0.01717015
95	0x3e540166	0.20703658
96	0xbda095fb	-0.078411065
97	0x3e7ece4f	0.24883388
98	0x3ea5a794	0.32354414
99	0xbf0512e9	-0.5198198
100	0xbf0c2e33	-0.54757994
101	0xbe65d3ef	-0.22444128
102	0x3db5c574	0.08875552
103	0xbe14622c	-0.14490575
104	0xbea50bda	-0.32235605
105	0xbf2765e5	-0.65389854
106	0xbf350431	-0.7070952
107	0x3d703b5a	0.058650352
108	0x3f43cacd	0.76481324
109	0xbec8d4b9	-0.39224795
110	0xbe4ba1cd	-0.19885941
111	0xbf451d26	-0.769976
112	0x3ee38294	0.4443556
113	0xbf29c124	-0.66310334
114	0x3f13193f	0.574604
115	0xbf39d542	-0.7259103
116	0xbe05d0fa	-0.13068
117	0x3ebfa624	0.37431443
118	0xbecb4a67	-0.39705202
119	0xbf0f6460	-0.56012535
120	0xbf38e51e	-0.72224605
121	0x3e01ce09	0.12676252
122	0xbf10931c	-0.5647447
123	0x3f2a89c5	0.6661647
124	0xbeb8e5cf	-0.3611283
125	0x3f2bbfa7	0.67089313
126	0xbef8633a	-0.48513204
127	0x3eba11a9	0.363416
128	0xbe0803ce	-0.13282701
129	0x3e9a181f	0.30096528
130	0xbe982993	-0.2971922
131	0xbed26b45	-0.41097465
132	0xbe97f9a9	-0.29682663
133	0xbeeac48c	-0.45853078
134	0x3e3d87c9	0.18508829
135	0x3e8dc2f7	0.2768781
136	0x3f12e26d	0.5737675
137	0xbcf12f52	-0.02944151
138	0x3e5e8fe8	0.21734583
139	0xbe74f7d4	-0.23922664
140	0x3eeebcc0	0.4662838
141	0x3ed19e54	0.40941107
142	0xbf0dc857	-0.5538382
143	0x3e0cd7fa	0.13754264
144	0xbc6bf255	-0.014401038
145	0x3e793100	0.24335098
146	0x3e8a05e0	0.26957607
147	0xbe9795cd	-0.29606476
148	0xbead1abb	-0.33809456
149	0x3eb603b0	0.35549688
150	0xbe72094e	-0.23636362
151	0x3e7a0d7f	0.24419211
152	0x3e357f86	0.17724428
153	0x3cd6f3ba	0.026239265
154	0xbe075fd5	-0.13220151
155	0x3cf434af	0.029810278
156	0xbeba088a	-0.3633464
157	0xbd86618f	-0.065615766
158	0x3ec976d0	0.3934846
159	0x3e3895b3	0.18025856
160	0x3d683b85	0.056697387
161	0xbae4c80f	-0.0017454642
162	0x3e4931bd	0.1964788
163	0x3eee37c1	0.46526912
164	0x3d7fdef6	0.06246849
165	0xbdf550fb	-0.119783364
166	0x3de15cbe	0.11004017
167	0x3eac0081	0.33594134
168	0x3e754fa8	0.23956168
169	0x3e95ee9a	0.292836
170	0x3f4eff84	0.80858636
171	0xbefbca9a	-0.4917801
172	0xbded147e	-0.11576174
173	0x3edf1d75	0.4357716
174	0x3dcebef0	0.10095012
175	0x3ee2f506	0.44327563
176	0xbdefbcf1	-0.117059596
177	0x3ed04e8a	0.4068492
178	0xbe516f31	-0.20452572
179	0x3e2bd10b	0.16778962
180	0x3f7f3a5c	0.99698424
181	0xbd785f52	-0.06063778
182	0x3d331d83	0.043729316
183	0x3ebd2807	0.369446
184	0xbe07327c	-0.13202852
185	0xbe9cdb06	-0.30635852
186	0xbd5368a9	-0.051613484
187	0xbef53fc9	-0.47900227
188	0x3f264083	0.6494219
189	0xbebf5353	-0.3736826
190	0xbed5bff9	-0.41748026
191	0xbf041405	-0.5159305
192	0xbc8835d8	-0.016627237
193	0x3c1c9a81	0.009558321
194	0xbc5cf395	-0.013485809
195	0x3c1a4772	0.009416448
196	0x3c35c18a	0.011093507
197	0x3b00b93f	0.0019641665
198	0x3c5f587c	0.013631936
199	0xbb08b76f	-0.0020861288
200	0xbbf088f3	-0.0073405444
201	0x3c524487	0.012833721
202	0x3c02fa03	0.007994178
203	0x3c9bb2ae	0.0190061
204	0x3c0868d4	0.008325774
205	0x3b1e5acb	0.0024163004
206	0x39a585c9	0.0003157093
207	0xbbd49c1d	-0.0064883367
208	0x3a99376e	0.0011689493
209	0x3c35f7db	0.011106457
210	0xbbdd77d2	-0.0067586685
211	0xbc8377d9	-0.016048359
212	0x39b3d532	0.00034300383
213	0x3c8361b9	0.016037809
214	0xbc00fa25	-0.007872139
215	0x3cd52e12	0.026022945
216	0xbb6f9b6c	-0.0036561145
217	0x38bc4381	8.977112e-05
218	0xbbfa5e7d	-0.0076406584
219	0x3cb9825e	0.022645172
220	0x3ba49dfd	0.0050237165
221	0x393d24ea	0.00018038196
222	0x3bf5df6c	0.0075034406
223	0x3d11209f	0.0354315
224	0x3e49973e	0.196866
225	0x3e92e7e3	0.2869254
226	0xbf4561b5	-0.77102214
227	0xbd97ec5a	-0.07418127
228	0xbf1b9eab	-0.60788983
229	0x3ec0b641	0.3763905
230	0x3d0b5e0d	0.03402524
231	0xbf9f4f72	-1.244612
232	0xbef02218	-0.4690101
233	0xbcd5beb7	-0.026091916
234	0xbed71b55	-0.4201304
235	0xbe66a724	-0.22524697
236	0x3f04b3c0	0.51836777
237	0x3d5fb5dc	0.054616794
238	0xbe0f655a	-0.14003506
239	0xbef4aefe	-0.47789758
240	0xbf1b2450	-0.60602283
241	0xbd6b9939	-0.05751917
242	0x3e18e43e	0.14930817
243	0x3f7da2ab	0.99076337
244	0xbf451f0a	-0.77000487
245	0xbf3b2752	-0.73106873
246	0xbf9c00cd	-1.2187744
247	0x3ec44552	0.38334137
248	0x3f2b639e	0.6694888
249	0x3f1a191e	0.60194576
250	0xbeff43ad	-0.4985632
251	0x3f3cdf63	0.7377836
252	0xbf668a72	-0.90055
253	0x3f25e764	0.648062
254	0xbe67b21e	-0.2262654
255	0xbea70f87	-0.32629034
